AI_Powered_Eduction_system/Models/dropout_model_weights.pth (torch, 5097 bytes, 3 tensors)

0.weight f4 [32, 17]
00000000: 79ee 433d a340 e9ba fe95 a2bd a0eb 4abd
00000010: dd72 1a3e 3a70 b3bb 0eee f9bd 98d8 413e
00000020: 1903 293c 3031 363e 7e40 2dbe bb69 053e
00000030: 3586 93bd 2c67 a6bd f2d3 08be 5a03 f73d
00000040: df58 513d 2009 973c e8f0 88bb 25a2 13be
00000050: 03a6 893b 6369 363e 6c35 403d 0568 98be
00000060: c568 733d d2da 3b3e 0305 cb3c c1dd c4be
00000070: 9ccd 933d e440 0fbc b8dd 73bc 4d1a 8b3d
00000080: 9d3f 40bd be69 023c 1949 253e 712c cebd
00000090: 910a ca3d 32c6 153e 0dfa d83d 2f67 633d
000000a0: e116 7b3e f226 093e 06bd 60be de82 9e3d
000000b0: 8957 823d 4fc4 21be 13e8 013c 1ec5 943c
000000c0: 016b dcbb 203c 803d a733 47bd ca06 19bc
000000d0: a7f6 173e 32a2 24be 2627 f7bd b258 0bbe
000000e0: d416 603d 8fc6 c73b bdc8 37be bda1 453e
000000f0: eab0 b93d 4167 aabe 9d01 92bb 18cd d0bd
00000100: 89c5 15be dd56 31be 8ee4 1a3e 3ce8 33bc
00000110: 7db4 4fbe fc53 ccbd 65b5 133e b240 fd3d
00000120: 2079 cbbd 5054 17be f868 803d 33a8 3abd
00000130: 4caa 83be fd6e 923d 7dc0 133f 6520 113e
00000140: 1efe dc3d 2f39 3b3e b21b 843d 1728 4e3b
00000150: 7a0e c1bd fd0c 053d e852 a83d f102 8d3d
00000160: 4431 a13d 1eb0 593e 26a9 debd 1fcd c0bd
00000170: a4aa 453e 12d2 bdbd 0fc5 81bd 8e12 493e
00000180: 8e01 47bd f717 52bc a899 713e b7db 373d
00000190: bd94 343e dc8a 56be 7a75 f33d 5327 8dbe
000001a0: 8012 e93d 0067 623d 7a9c 2bbe 95a4 143d
000001b0: 6df6 dbbd a4ba 943e 576b 373d 0aff 29be
000001c0: 7969 a93e 7147 913e f486 0dbe d895 56bd
000001d0: 6676 263e 5945 1cbe 456d 113e c00d 6abe
000001e0: 4b06 c6bd 09cb fe3d 9fdc 553c 0021 0e3d
000001f0: fcc6 e0bd feea 7d3e 8703 873c d931 55be
00000200: 8171 e4bc a805 9d3e 93cc 573e ae05 00be
00000210: a4d9 563e 9422 66bd 4be5 26be e945 e5bd
00000220: 4db6 d2bd 55f3 583c e53d 12be 9862 99bd
00000230: 92bb fd3d b6b4 d9bd 8cd3 b9bd a389 113e
00000240: 7f6d 203e a81c 61bc ec7c 87be 7715 92be
00000250: 1bb3 e33d 6de0 9d3d 6664 f6bd 7516 7cbd
00000260: 99c5 353c ddff 7dbd 148f 583b 45c3 c13b
00000270: 5ae5 1cbe f254 12be bb2f 343e 23bb 003d
00000280: 9c5d b9bb 2cb9 673d fec9 eb3d e178 553d
00000290: 461e 18be 2abf dd3c 5c4e 22be 3618 98bd
000002a0: 5aee a2bd 3cfa 0bbe ec2e 663c 1873 10be
000002b0: 5f2d 203e d5ac 29bd 4eb4 18bd a850 d83d
000002c0: a5b3 0f3d d0d7 c63d 50b9 ab3d 2ff3 e63d
000002d0: 6987 193d ed55 9cbd d3a0 45be d7b0 53be
000002e0: a3fb 5a3e 115a eb3d 6bfc 723e 7e48 293e
000002f0: 7488 b73d f64f 2abe bee5 38be d5dc ca3d
00000300: e30a f9bd b641 a2be adcb 043c 1926 6f3e
00000310: e464 a83c ba6f a5bd f467 efbd 2032 48be
00000320: 7019 b7bd cdbf 53be bb93 efbd c283 27be
00000330: dea6 3dbe b125 95bd c2f0 233e be8f b33d
00000340: 61bf 69bd 2421 823b da6b 743e 4d4a 3cbe
00000350: 6002 2e3e 7dbf 1b3e 1686 573d 1ed6 033e
00000360: de73 0abc def2 39be 7ffa 06be 613e 4b3d
00000370: 6c3d 9bbc 6db3 34be 17d4 22bd 6183 b9be
00000380: d154 09be 7911 a13d eef0 653e d616 8abe
00000390: 65fd feba 082e 45bd 2202 3ebe 04f7 a9be
000003a0: 2374 2b3d 536a 9b3d 0af1 62bd f0a0 10be
000003b0: 73b9 07be 56b0 633d 6af1 803c 2a49 293a
000003c0: 6af0 36be fac6 2ebc 3d7e 1e3d 01fc 453e
000003d0: 6d5e 39be 8605 113e 202a ae3e 81cc d9bd
000003e0: 6d8c ffbe 8eb3 d0bd dcd0 05bd 1af6 9abd
000003f0: 45a0 8bbd 4d7e 333d 7f83 4abc 90d4 063e
0.047834847 -0.0017795753 -0.07938765 -0.049541116 0.1508288 -0.005476025 -0.122036085 0.1893028
0.01031568 0.17792201 -0.16919133 0.13028614 -0.07203332 -0.08125147 -0.133621 0.12061186
0.051110145 0.018436968 -0.004179109 -0.14417322 0.0042006983 0.1781364 0.046925947 -0.2976686
0.059426088 0.18345192 0.024782663 -0.38450435 0.07216951 -0.0087434985 -0.014884405 0.06792126
-0.046935666 0.007959781 0.16141166 -0.1006707 0.09865297 0.14626387 0.105945684 0.055518325
0.24520446 0.13393763 -0.21947107 0.07739805 0.06364352 -0.15797542 0.007928866 0.018160399
-0.006726623 0.06261468 -0.048633244 -0.009339998 0.14840184 -0.16077498 -0.12068014 -0.13608053
0.05470927 0.006096668 -0.1794767 0.1929998 0.09066947 -0.332819 -0.0044557587 -0.101953685
-0.14626135 -0.17318292 0.15126249 -0.010980662 -0.20283695 -0.09976956 0.14424665 0.12365855
-0.09935212 -0.14778256 0.06270021 -0.045570564 -0.25715864 0.071500756 0.5771559 0.14172514
0.107906565 0.18283533 0.06450595 0.0031457 -0.09426589 0.03248309 0.08218938 0.06885327
0.07870725 0.2125859 -0.10872106 -0.09414124 0.19303375 -0.09268583 -0.06336414 0.19635984
-0.048585467 -0.0128230965 0.23593771 0.04488727 0.17634864 -0.20951408 0.11887641 -0.27569064
0.11380482 0.05527401 -0.1675891 0.03628977 -0.10740361 0.29048645 0.0447801 -0.16601196
0.33088282 0.28374818 -0.13821012 -0.052388996 0.16256103 -0.15260829 0.1420184 -0.22856808
-0.09669169 0.1244107 0.013053088 0.03469944 -0.10975453 0.24796674 0.016481174 -0.20819797
-0.027886154 0.30668378 0.21074133 -0.12502167 0.20981461 -0.05618532 -0.16298406 -0.11194975
-0.10288677 0.013241609 -0.14281423 -0.074895084 0.12389292 -0.10630171 -0.090735525 0.1421266
0.1566677 -0.013739742 -0.26462495 -0.28532 0.11118146 0.077088214 -0.12030868 -0.061544854
0.011094474 -0.06201159 0.0033044266 0.0059131705 -0.15321866 -0.14290217 0.17596333 0.031428467
-0.005656911 0.056573078 0.11513136 0.052117232 -0.14855298 0.027068693 -0.15850204 -0.07426493
-0.07955618 -0.13669676 0.014049273 -0.14106405 0.15642308 -0.04142459 -0.037281327 0.10562259
0.03508343 0.09709132 0.08384955 0.11276852 0.037482653 -0.076335765 -0.19299631 -0.20672928
0.21385054 0.11491788 0.23729102 0.1653156 0.08961573 -0.16632065 -0.1805639 0.099054016
-0.121602796 -0.31690758 0.008105201 0.23354377 0.02055592 -0.08077951 -0.11689749 -0.19550371
-0.08940399 -0.20678635 -0.11698099 -0.16358855 -0.18520686 -0.0728258 0.1600981 0.08767651
-0.05706728 0.003971236 0.23869267 -0.18387718 0.16993093 0.15209766 0.05261811 0.12874648
-0.008450476 -0.18159053 -0.13181494 0.049620036 -0.018950187 -0.1764657 -0.039753046 -0.36233047
-0.13411261 0.07864661 0.22455189 -0.26970547 -0.001945418 -0.048139602 -0.18555501 -0.3319627
0.041858803 0.07588639 -0.055405654 -0.14123893 -0.13254337 0.05558809 0.015740115 0.00064577407
-0.17865148 -0.010667557 0.03869461 0.19334413 -0.18102427 0.14162263 0.34016514 -0.10634709
-0.49911824 -0.10190497 -0.032669887 -0.075664714 -0.06817678 0.04382162 -0.012360453 0.13167024

0.bias f4 [32]
00000000: e409 b5bd c333 a33e cacb d43c 2c35 803e
00000010: 245d c23d d38f ac3d 951c 3fbe 99c4 8dbb
00000020: e248 3d3e 0733 62be a8c0 40bd 38d8 2fbe
00000030: d876 30be f31a d2bc 9ff8 c23e 878e 043e
00000040: 46c2 1abd dc51 ce3d 5399 263e 5a34 7d3e
00000050: adde a83d 3e87 e83a 0b07 453e 01fb 4bbd
00000060: b8f4 cabd 6720 263e 9d7a 25be 94a7 8c3d
00000070: b35b 213e 9c39 223c d1f4 203d e1f5 cebc
-0.08839777 0.3187543 0.02597608 0.25040567 0.094904214 0.0842587 -0.18663247 -0.004326415
0.18484834 -0.22089778 -0.04705873 -0.17172325 -0.17232835 -0.025647616 0.38080308 0.12944995
-0.03778293 0.10074207 0.16269426 0.24727002 0.08245597 0.0017740501 0.19240968 -0.049799923
-0.09909958 0.16223298 -0.16160055 0.068679005 0.15757637 0.00990143 0.039295975 -0.025263729

3.weight f4 [1, 32]
00000000: 8bdb 3a3e a525 f13e 5d73 3abe 6b3c 6b3e
00000010: 2025 e7be 9e71 cbbd 5ecb 8fbe 66aa e4be
00000020: c63e aa3e 4087 b4ba 18f4 2abe 96a8 7d3e
00000030: 0061 e4bd 59fd dc3e 39b8 2d3f ad32 02bc
00000040: 67aa 883e bc60 9dbe dfa3 873e 544e 143f
00000050: 1377 843e 355e 263e 2807 103e 4106 6bbe
00000060: 5be7 6a3e 5c5b 6ebe 564e 793d 8017 b9be
00000070: f700 d33e fc96 e4be c990 dbbe 970b a4be
0.18247811 0.47099033 -0.1820807 0.22972266 -0.45145512 -0.0993378 -0.28084844 -0.44661254
0.33251017 -0.0013773218 -0.16694677 0.24771342 -0.11151314 0.4316204 0.67859226 -0.007946652
0.26692507 -0.30737865 0.2649221 0.5793202 0.25872096 0.16246875 0.1406523 -0.22951604
0.22939818 -0.23277038 0.060865723 -0.36150742 0.41211674 -0.44646442 -0.428839 -0.32040092
